__________________________________________________________________________________________________
Layer (type)                    Output Shape         Param #     Connected to
==================================================================================================
input_1 (InputLayer)            (None, 552, 128)     0
__________________________________________________________________________________________________
conv1d_1 (Conv1D)               (None, 552, 128)     524416      input_1[0][0]
__________________________________________________________________________________________________
spatial_dropout1d_1 (SpatialDro (None, 552, 128)     0           conv1d_1[0][0]
__________________________________________________________________________________________________
add_1 (Add)                     (None, 552, 128)     0           spatial_dropout1d_1[0][0]
                                                                 input_1[0][0]
__________________________________________________________________________________________________
activation_1 (Activation)       (None, 552, 128)     0           add_1[0][0]
__________________________________________________________________________________________________
lambda_1 (Lambda)               (None, 552, 128)     0           activation_1[0][0]
__________________________________________________________________________________________________
max_pooling1d_1 (MaxPooling1D)  (None, 276, 128)     0           lambda_1[0][0]
__________________________________________________________________________________________________
conv1d_2 (Conv1D)               (None, 276, 128)     524416      max_pooling1d_1[0][0]
__________________________________________________________________________________________________
spatial_dropout1d_2 (SpatialDro (None, 276, 128)     0           conv1d_2[0][0]
__________________________________________________________________________________________________
add_2 (Add)                     (None, 276, 128)     0           spatial_dropout1d_2[0][0]
                                                                 max_pooling1d_1[0][0]
__________________________________________________________________________________________________
activation_2 (Activation)       (None, 276, 128)     0           add_2[0][0]
__________________________________________________________________________________________________
lambda_2 (Lambda)               (None, 276, 128)     0           activation_2[0][0]
__________________________________________________________________________________________________
max_pooling1d_2 (MaxPooling1D)  (None, 138, 128)     0           lambda_2[0][0]
__________________________________________________________________________________________________
lstm_1 (LSTM)                   (None, 138, 128)     131584      max_pooling1d_2[0][0]
__________________________________________________________________________________________________
spatial_dropout1d_3 (SpatialDro (None, 138, 128)     0           lstm_1[0][0]
__________________________________________________________________________________________________
add_3 (Add)                     (None, 138, 128)     0           spatial_dropout1d_3[0][0]
                                                                 max_pooling1d_2[0][0]
__________________________________________________________________________________________________
activation_3 (Activation)       (None, 138, 128)     0           add_3[0][0]
__________________________________________________________________________________________________
lambda_3 (Lambda)               (None, 138, 128)     0           activation_3[0][0]
__________________________________________________________________________________________________
up_sampling1d_1 (UpSampling1D)  (None, 276, 128)     0           lambda_3[0][0]
__________________________________________________________________________________________________
lstm_2 (LSTM)                   (None, 276, 128)     131584      up_sampling1d_1[0][0]
__________________________________________________________________________________________________
spatial_dropout1d_4 (SpatialDro (None, 276, 128)     0           lstm_2[0][0]
__________________________________________________________________________________________________
add_4 (Add)                     (None, 276, 128)     0           spatial_dropout1d_4[0][0]
                                                                 up_sampling1d_1[0][0]
__________________________________________________________________________________________________
activation_4 (Activation)       (None, 276, 128)     0           add_4[0][0]
__________________________________________________________________________________________________
lambda_4 (Lambda)               (None, 276, 128)     0           activation_4[0][0]
__________________________________________________________________________________________________
up_sampling1d_2 (UpSampling1D)  (None, 552, 128)     0           lambda_4[0][0]
__________________________________________________________________________________________________
time_distributed_1 (TimeDistrib (None, 552, 18)      2322        up_sampling1d_2[0][0]
==================================================================================================
Total params: 1,314,322
Trainable params: 1,314,322
Non-trainable params: 0